Results/resatt_cnn_weights.pth (torch, 247506 bytes, 44 tensors)

input_conv.weight f4 [32, 2, 3, 3]
00000000: 0cb6 eebc 9843 fbbd a7e9 ef3d 9ddf 2abe
00000010: 8454 7b3b ca3c 69bd 1c99 afbd 5383 76bd
00000020: 8ee6 503e 6bc2 60be b748 c6bd 248a cb3c
00000030: f571 61be 473d d53c fb7e 3abe 247f 173e
00000040: 152e 903d 9646 3fbe 719b 25be 8f0c 513e
00000050: 7716 4c3e 7076 3d3e 8694 3d3e c0d0 30be
00000060: 9306 d53d ecf5 98bd 90d8 d7bd a680 973c
00000070: 7219 ed3d 8766 8a3c 5e51 5b3d 3dd4 bebd
00000080: 538a 59be 22eb 063e 85c4 b13d 6c76 f53d
00000090: 5588 e2bd 18ba 8abd dd65 3fbe 0673 2fbb
000000a0: 8340 4ebe 4a09 303e 73f2 543e a9f9 5d3e
000000b0: 6398 b73d b786 273d 1d59 4c3e f05c 2bba
000000c0: 85b7 6b3e 5726 d1bc 9de2 6dbe b58d 68be
000000d0: d75f ea3d f97a 59bd ca32 883d f127 f5bd
000000e0: f445 bbbd a64c 2cbe d988 c5bd 98b7 123e
000000f0: d19f 513e 5806 2c3c d260 dfbd 091a 273e
00000100: ba5c 463d 5edd 83bd e1f1 9abd 733d 773e
00000110: f075 d4bd 90f4 3f3e a44b 333e b72e 023e
00000120: 3fc1 76bd bbd2 263e 90c5 923d 0bb2 6bbd
00000130: b894 8ebd 80a2 5abe 2803 59be f108 3a3e
00000140: f442 5f3e c73c 18be 9a4d 153d ccea 47bd
00000150: e7ee e73d d5f2 413e 438b a13d 0404 3c3e
00000160: c290 7ebc e307 353e 0eeb 8ebc 5035 19be
00000170: 8f90 9fbd 4a82 843d f65e 15be 35d5 07be
00000180: e217 30bd e953 253d ed4d 573e a5ae 8abb
00000190: a555 4fbe 0c7e 29be 3fad e93d d049 593e
000001a0: b1c7 a53d fa54 00bd 9d1b e9bc 3596 5b3d
000001b0: 1bbe dabd 4030 b53c 372b 8ebb c28b 683e
000001c0: 8fe5 0f3e 2a46 333e eb25 f7bd e343 dabc
000001d0: 0e72 d5bc b265 073e c87e 2abe 2c88 2e3e
000001e0: 9a35 203e 78ad 3dbe 6620 41be fd60 73bd
000001f0: ffe2 273c 5058 63be 03d3 853d 623b 01be
00000200: ee92 143c 4cda d83d caea 563e c3d2 d03d
00000210: d429 583e 7b67 afbc d222 133d 8147 63be
00000220: e8ec 2bbe 5b64 1fbe e67b f4bd 281e 143e
00000230: ccd1 cd3d a15c 423e 5dde 59be f0ca 8fbc
00000240: 7b74 55be 5a4f d33d 2fcc 35be a023 853d
00000250: 0bc1 17bd ee60 39be 6c60 cbbd ca79 393e
00000260: 33da e43d c6f3 713e d1fc 693d e7f8 f93d
00000270: 46e3 a1bd 3e8d 71be f3b0 993d 69e3 60bd
00000280: 1e45 fcbc 5341 b53d ff01 f2bd 56fe f63c
00000290: 4940 903d e448 4abe 6d5c ee3d ca3e 5f3d
000002a0: df4d 11be 3178 74be fd99 7bbd c6c3 863c
000002b0: 5e12 12be ca73 5b3d 7f99 4bbd 2c36 8bbd
000002c0: 291c 053e cb39 1cbe a6df 49be e3a9 0ebe
000002d0: 358c fb3d 834b 37be d8fc 4e3e 6a9c 063e
000002e0: 6e5c 5dbe 6cb7 06bd f035 5abe 51f2 2b3e
000002f0: f2ed 97bd b77a 22be 9bba 43bd 9e74 0a3e
00000300: f866 f23c e54a b93d 93d0 3e3e ee89 3c3e
00000310: ea02 573e 437a 11be 8365 6e3e 504f 4f3e
00000320: 9683 f2bd 834a 1fbe 1cc7 c5bd 0d39 2b3e
00000330: ec8a 6dbe f506 f3bc cd42 703e 454c 9bbc
00000340: ca6a 35be 344c 463e e57a 853e b143 1c3d
00000350: d2c3 ec3d e48b 3cbd 3476 1cbe c189 403e
00000360: 307f 483b 8fd1 613e 9b5f 703e e845 343e
00000370: 7b23 3f3e 09bf fc3d b806 0abe 2ddf 153e
00000380: 83d2 843e c813 b7bd 610f 183e f7b3 523e
00000390: 9c52 1e3e 48ba 403e cb7a b53d f31d da3d
000003a0: ebbf 43be dcc4 0abd 57fa db3d f2a9 dabd
000003b0: 7d67 a2bd c2d8 b63d 0cb8 673e 8edb fc3d
000003c0: 6c8e 393d 2fc6 893d 8ab5 25be 1206 fc3d
000003d0: 97b3 753d fd7f 0b3e dfea 25be a9ff 183e
000003e0: dfed 9d3d a940 413e 8609 033d 81c7 173d
000003f0: 2b2d f9bd d652 51be b011 e13d 0412 10be
-0.029139541 -0.12268752 0.117144875 -0.16686864 0.0038349936 -0.05694274 -0.08574125 -0.060183834
0.2040045 -0.21949165 -0.09681838 0.024846144 -0.22016127 0.026030196 -0.18212502 0.14794594
0.070400394 -0.1867927 -0.16172577 0.20414947 0.19930445 0.18502212 0.18513688 -0.17267132
0.104016446 -0.07468781 -0.10539353 0.018493962 0.11577119 0.016894592 0.053544395 -0.09317825
-0.21244173 0.13175634 0.08680061 0.11985478 -0.110611595 -0.06773776 -0.18691202 -0.002677144
-0.20141797 0.17191043 0.20795612 0.21677269 0.08964612 0.04089996 0.19955869 -0.0006536981
0.23019226 -0.025530977 -0.23230977 -0.22710307 0.11444061 -0.05309579 0.06650312 -0.11970509
-0.09144202 -0.16826114 -0.09645242 0.14327848 0.20471121 0.010499559 -0.10907139 0.16318525
0.048428275 -0.06438707 -0.07565666 0.24144535 -0.10374057 0.18745637 0.17509323 0.12713133
-0.060242888 0.16291325 0.07166588 -0.057542842 -0.069619596 -0.21351051 -0.2119261 0.18167473
0.21802884 -0.14866935 0.03645096 -0.048807904 0.11324864 0.1894029 0.0788789 0.18360907
-0.015537443 0.1767879 -0.017446067 -0.14961743 -0.07791244 0.06470163 -0.14587006 -0.13264926
-0.042991526 0.040363226 0.2102582 -0.004232245 -0.20247515 -0.1655199 0.11409997 0.21219563
0.08094729 -0.03133104 -0.02845555 0.053610045 -0.10680791 0.022117734 -0.0043386477 0.22709563
0.14052413 0.17507234 -0.12067779 -0.026643699 -0.026055362 0.13222387 -0.16649926 0.17044133
0.15645447 -0.18523204 -0.18860015 -0.059418667 0.010246991 -0.22201657 0.06534388 -0.12620309
0.009068234 0.10588512 0.20988002 0.101964496 0.21109706 -0.021411648 0.03592188 -0.22195245
-0.16789591 -0.15565626 -0.11937694 0.14464629 0.10049781 0.18980648 -0.21276231 -0.017552823
-0.20845215 0.103178695 -0.17753671 0.065009356 -0.037049334 -0.18103382 -0.099305004 0.18112865
0.11174431 0.23628148 0.05712587 0.122056775 -0.07904677 -0.23589036 0.075044535 -0.054904375
-0.030794676 0.0885035 -0.11816787 0.030150574 0.070435114 -0.19754368 0.116387226 0.05450324
-0.14189862 -0.23873974 -0.06142615 0.016450774 -0.14264819 0.053577222 -0.049706932 -0.06797442
0.12999023 -0.15256421 -0.19714221 -0.13931994 0.12282602 -0.17899899 0.2021364 0.13145605
-0.2161729 -0.03288977 -0.21309638 0.16791655 -0.07418431 -0.15867124 -0.047785383 0.13521048
0.029590115 0.09047488 0.18634252 0.18411991 0.20997205 -0.14206795 0.23280911 0.20245099
-0.11841504 -0.15555768 -0.09657118 0.16720982 -0.23197526 -0.029666403 0.23462982 -0.018957267
-0.17716518 0.19365007 0.26070324 0.038150493 0.11560787 -0.046031848 -0.15279466 0.18802549
0.0030593388 0.22052597 0.2347397 0.17604792 0.18665878 0.123411246 -0.13479125 0.14635916
0.25941858 -0.0893932 0.14849617 0.20576464 0.154612 0.1882106 0.088613115 0.106502436
-0.1911618 -0.033879146 0.10741108 -0.10676946 -0.07929895 0.08928062 0.22628802 0.12346564
0.04530184 0.06727254 -0.16182533 0.12305845 0.059985723 0.13623042 -0.16202877 0.14941277
0.07711386 0.18872322 0.031991504 0.037055496 -0.12166818 -0.20441756 0.10989702 -0.14069372

input_conv.bias f4 [32]
00000000: 5790 b83c 21b6 94bb 0de0 733c 8580 6b3e
00000010: 7bde 24bb 5632 c33c fcf7 5d3e ecf2 003e
00000020: 86ac d73d e062 2a3d 1d9b d4bd 53de d0bd
00000030: 8493 8ebd 89fc cdbd 83a0 eabc 2492 373e
00000040: 2740 943d 99d4 26be 534d d83c 8789 4b3e
00000050: 7cb8 45be 330f e0bd 6d4e 45be cc03 b9bc
00000060: aa1b de3b 85ed ea3b 11d8 283e 76ae e53d
00000070: 9d3b 3a3d d848 1a3e 6959 c4bd 1218 9b3d
0.022529764 -0.004538313 0.014884961 0.22998245 -0.0025157023 0.023827713 0.2167663 0.12592667
0.10530953 0.0415982 -0.10381148 -0.10198655 -0.0696173 -0.10057933 -0.028640991 0.17926842
0.072387986 -0.16292037 0.026404059 0.19876681 -0.19308656 -0.10940399 -0.19268198 -0.022584818
0.0067782 0.007169428 0.16488673 0.112149164 0.045467008 0.1506685 -0.09587366 0.075729504

res_blocks.0.conv1.weight f4 [32, 32, 3, 3]
00000000: b775 803c 2c1e 393d ab84 94bc f23a a33c
00000010: 51d9 61bc fa64 953d 7171 5d3d 885c 423d
00000020: 023a 3ebc ef88 c43b 5f7d 423d 61d1 69bd
00000030: b959 993b 98c0 3e3c 088d db3c a944 db3b
00000040: 0366 483d 4e12 44bd 18bd 30bd 9912 7c3d
00000050: 6693 a83c 3ba4 56bd 2a46 88bc 680c 20bc
00000060: cd26 4abb a069 493d 86ed 4dbd f828 06bd
00000070: 5910 983c eb92 543a 0e2e 20bc ed47 f63c
00000080: 6485 e83c 142e f43c 08d8 283d 1cdd 403d
00000090: c6e0 90bb 8179 08bd ceb7 edbc 8337 60bd
000000a0: 3b81 613c fb80 4dbd 333e 0abd d765 013b
000000b0: 3755 2abd 9f9c 953c ab37 bcbc 5c9e 81bc
000000c0: bdd3 78bc d436 4ebd c03a 95bb c886 fc3c
000000d0: 283a 3a3d 957e 42bd 2cd7 5b3b f13b 45ba
000000e0: 2042 0abc 53f2 753c af68 5f3c 8d2c 133d
000000f0: 402c 693b c263 6b3d 5cb5 d23c 4ca4 2c3d
00000100: 2eea 403c ccd3 103a 4d7b 33bd 9b9c 6b3d
00000110: 7170 ef3c 3c30 713d 2252 8bbc 0da9 183d
00000120: 1a0c 3c3d 45ce 9b3c 13ca 073c 7b4d 5dbd
00000130: 7705 0d3d 6e7e 833c d60f 1bbd e65a fe3b
00000140: 48d9 273a 0ad8 8d3c 962b 5bbd c8f6 dcbc
00000150: af49 98bc ebb9 34bc 48ff 06bd bcb0 4fbc
00000160: 7d2b 793c 4716 0bbd 4b3b fabc 9844 3bbb
00000170: 9d60 5fbd eaa4 58bd d482 443c bf1b 1d3d
00000180: 2e65 11bd f9be 51bc 1b9a 583a fe28 d0bc
00000190: 3f48 1ebc 18ea 9cbc 43dc 183d bcf3 173c
000001a0: 277b 993c 6663 283d 27ab ef3c b8c5 c1bc
000001b0: e175 bbbc 9df1 bd3c 5a2c 13bd c5ad 33bd
000001c0: 6129 3bbd 85e6 9fbb 689c fabc 5a71 efbc
000001d0: 39ae 07bd c930 303d a15a 1e3c c6ea 0fbd
000001e0: dd09 aa3c 463f bc3d 8480 513d 5a24 a63d
000001f0: 5f21 653b 965a c8bb a3b6 303d a2ac adb9
00000200: 872b da3c 0bf0 3cbd 9584 fe3c 0214 dd3b
00000210: 0766 0dbc b081 34bc 5a79 213d 5488 00bd
00000220: cbf0 063c f42a 453c 0fa2 ec3c 210a 80bd
00000230: 6d49 173d 5bf5 3bbd 426f 89bd 65df 6fbc
00000240: 6dfc b63c d408 653d 53c5 303d 6b77 1e3d
00000250: b382 7b3c a1fd c03c cdc6 7c3c 25db e6bc
00000260: 154f d7bc 57af 7bbc 7861 493d 7768 7f3d
00000270: 3e10 b3bb 0937 7e3d 5e3e edbc 6ee3 753d
00000280: 62be 833c 5e39 00bd 25fd ccbc cbd0 ef3c
00000290: 26f4 49bb 0014 cb3b d2e0 903d f26b c03c
000002a0: 48b7 debc 8025 c13c 9341 07bd 51b7 0abd
000002b0: 0357 ebbb b93e ebbc bed3 003d 38e3 92bd
000002c0: 3d2b 83bc cf83 043d 6742 623b b267 ccbc
000002d0: daf8 f9bc 7f6b 40bd d8d9 14bc a451 353d
000002e0: 992a 223d c8d4 d53c 84ae abbc f4be 8d3d
000002f0: ef6d 03ba 1593 03bc a6b8 893d 274a a9bc
00000300: 3c9f 5e3c 44a0 773d 2aca a93d 9475 66bd
00000310: b7d5 163d 5cf0 15bd e496 613c acdb 983d
00000320: 967f 01bc da94 cc3c c53d 94bc da03 223d
00000330: 4751 263d db61 21bd 7389 2fbd 60df 48bd
00000340: d089 07bd c62e a3bc 0d2c b1bc 4302 d43c
00000350: 6c0e e93c 82bd b9bd 87bc 983b 87dc 163d
00000360: aa21 a5bc 9ad1 b5bc 1ca3 7cbd f2d5 be3b
00000370: 1bc1 5dbd 185f 343d e915 2b3d 8459 1abd
00000380: 80a6 283d b438 34bd 3fc2 6cbd 0a9a 14bd
00000390: 2b5c a0bc a0aa e0b8 f453 e43c e8d0 363d
000003a0: cb1b cf3c b642 aebc 926a 013d 5139 433d
000003b0: 852e 70bd 4d03 2ebb 0ec5 5abd dded 4abb
000003c0: d7ac d63c 1699 c0bc ad0b bbbc 47fc 453d
000003d0: f738 613d 9e4a fd3b ce15 d33c 1b36 84bc
000003e0: ebf4 6abd c52f 89bd 2909 91bc 95d1 90bc
000003f0: 4df0 0f3d 7bfb 69bd e133 40bc 1eaf 8e3b
0.01568113 0.04519479 -0.018129667 0.019925568 -0.013784722 0.072946504 0.054063264 0.047451526
-0.01161051 0.005997769 0.047482844 -0.057084445 0.004679885 0.011642598 0.026800647 0.0066915345
0.04892541 -0.04786902 -0.043149084 0.061541174 0.020578098 -0.052402716 -0.01663502 -0.009768583
-0.003084588 0.049172997 -0.050275348 -0.032753915 0.018562483 0.00081090507 -0.009776605 0.030063594
0.028383918 0.029807128 0.04122165 0.047085866 -0.0044213263 -0.033319 -0.029018309 -0.05474044
0.013763721 -0.050171833 -0.033750724 0.001974454 -0.041585173 0.01826316 -0.022975763 -0.015822582
-0.015187201 -0.050345257 -0.0045541227 0.030825987 0.04546562 -0.047484 0.0033545 -0.00075238856
-0.008438617 0.015011388 0.013635798 0.03593116 0.0035579354 0.057468183 0.025721245 0.042148873
0.011774583 0.0005524724 -0.04381876 0.057522397 0.02922842 0.05888389 -0.017006937 0.037270594
0.04590998 0.019019255 0.008287924 -0.05402897 0.03442904 0.016051497 -0.0378569 0.007762301
0.0006402922 0.01731493 -0.053508364 -0.026973143 -0.018589823 -0.011030654 -0.0329583 -0.012676414
0.015208122 -0.033956792 -0.030545851 -0.002857482 -0.054535497 -0.05289165 0.0119940825 0.03835654
-0.035496883 -0.012801879 0.00082627096 -0.025410172 -0.0096607795 -0.019154593 0.037319433 0.009274419
0.018735481 0.04111042 0.029256416 -0.02365385 -0.022883357 0.0231865 -0.03593097 -0.04386689
-0.04569376 -0.004879775 -0.030592158 -0.029228855 -0.033125136 0.043015275 0.009665162 -0.035136007
0.020756656 0.09191756 0.051147953 0.08112402 0.0034962518 -0.0061143143 0.043142926 -0.00033125753
0.026632084 -0.04612736 0.03106908 0.00674677 -0.008630282 -0.011017248 0.03942237 -0.031380013
0.00823612 0.012034167 0.02888587 -0.06251932 0.03693526 -0.045888286 -0.06710674 -0.014640664
0.022337163 0.055916622 0.043156933 0.038688105 0.015350985 0.02355844 0.015428257 -0.028180668
-0.026282826 -0.0153616285 0.04916522 0.062355485 -0.0054645827 0.062064204 -0.028960403 0.060031347
0.016081993 -0.03130471 -0.025023052 0.029274365 -0.003081569 0.0061974525 0.07074131 0.023488972
-0.027187005 0.023577452 -0.03302152 -0.03386623 -0.0071820035 -0.028716432 0.031451933 -0.07172245
-0.016011829 0.032352265 0.0034524442 -0.02495179 -0.03051417 -0.046977516 -0.009085141 0.04426731
0.039591406 0.026102439 -0.020957239 0.06921187 -0.0005013635 -0.008030673 0.06724672 -0.020665241
0.013587769 0.060455576 0.08290513 -0.056264475 0.036824908 -0.036606178 0.013768885 0.07463774
-0.007903954 0.024973322 -0.01809586 0.039554454 0.040604856 -0.039399963 -0.04285569 -0.049041152
-0.033090413 -0.019919764 -0.02162745 0.025879985 0.02844926 -0.09069349 0.004661146 0.036831405
-0.020157654 -0.022194672 -0.06167899 0.005823844 -0.054139238 0.044036 0.041768942 -0.037683025
0.04117441 -0.04399939 -0.057802435 -0.036279716 -0.0195752 -0.00010712934 0.027872063 0.044632822
0.025281807 -0.021272045 0.031595774 0.047662083 -0.058638114 -0.002655226 -0.053410582 -0.0030964531
0.026205463 -0.023510497 -0.022832716 0.048336294 0.054985967 0.0077298423 0.025767233 -0.01613908
-0.05736248 -0.066985644 -0.017704563 -0.017678062 0.035141278 -0.057124596 -0.011731119 0.0043543717

res_blocks.0.conv1.bias f4 [32]
00000000: 730a 00bd 35ac 513c 6bea 493b 75b4 c03c
00000010: 88a4 29bd 404e 483d 3eea 35bd e4d2 95ba
00000020: a454 9839 01bc 813c af97 2dbd 2c84 afbc
00000030: d542 38bd 7e30 163d 9b18 d73c 6c46 623c
00000040: 612b 9e3b 1f8b 893d aee1 103d 0ab7 28bc
00000050: 5659 fd3b 3ecb d9bb cfd8 44bc 2a8c 8ab9
00000060: 3956 85bc 07c7 0bbd be59 c73c 3ecb 573d
00000070: d517 02bc 9a6d 483d b81b 56bd af35 d33c
-0.031259965 0.012797405 0.003080989 0.023523549 -0.041416675 0.04890275 -0.044412844 -0.0011430648
0.0002905476 0.015836718 -0.042380985 -0.02142533 -0.04498561 0.03666734 0.02625685 0.013810735
0.0048269485 0.06715988 0.035371475 -0.010297546 0.007731597 -0.006646543 -0.012014582 -0.00026425841
-0.016276466 -0.034125354 0.024334785 0.05268406 -0.007940252 0.04893265 -0.05227253 0.025782434

res_blocks.0.bn1.weight f4 [32]
00000000: 9ea9 803f 9b75 7e3f fc28 813f 7078 833f
00000010: 1b5f 7d3f a211 853f 8a54 7c3f d162 813f
00000020: 9826 7d3f dc16 7d3f 30db 7d3f bcb4 7c3f
00000030: 3306 7b3f 85c6 813f cb3f 7b3f 5ec7 813f
00000040: 9513 813f 667a 7d3f 3768 803f 6d04 7e3f
00000050: 91f3 7b3f 9d81 7d3f 67c2 803f c8e0 803f
00000060: 6f12 7b3f 0074 823f 41c2 7f3f e8ac 793f
00000070: 5612 7b3f 3c4d 803f 7b20 833f 0193 813f
1.0051763 0.993982 1.0090632 1.027113 0.98973244 1.0396006 0.98566496 1.0108281
0.98887014 0.98863006 0.9916258 0.9871328 0.98056334 1.0138708 0.98144215 1.0138967
1.0084101 0.9901489 1.0031804 0.99225503 0.9841853 0.990259 1.0059327 1.0068598
0.98075 1.019165 0.9990578 0.9752946 0.98074853 1.002357 1.0244287 1.0122987

res_blocks.0.bn1.bias f4 [32]
00000000: c545 a9ba 795f e8bc d224 c83c cc4f d2bc
00000010: bacf e23b 99b2 8b3c c7ef 4fbc 4548 d83b
00000020: 75aa 94bb 969e c23c 7c45 a4b9 5909 b3bc
00000030: d2e7 92bc 4823 81bc 5f56 0e3c 77ac 043c
00000040: 432e c1bc 828b e2bc fe59 213c 844a 68bc
00000050: 779f bfbc e996 50ba af20 2e3c 0c77 8c3b
00000060: 1e3d 35bd 8a75 b13c cfa5 acbc b473 853c
00000070: 6746 7abc cfdb d63c d880 133d 1a25 b9b9
-0.001291447 -0.028365837 0.02443162 -0.025672816 0.0069217356 0.017052935 -0.012691445 0.006600412
-0.0045369216 0.02375726 -0.00031332287 -0.021855043 -0.017932806 -0.015763894 0.008687585 0.008097759
-0.02358163 -0.027654413 0.009848116 -0.014177922 -0.023391468 -0.00079570577 0.01062791 0.0042866524
-0.04424774 0.021662492 -0.021075157 0.016290523 -0.015275574 0.02622786 0.036011547 -0.00035313593

res_blocks.0.bn1.running_mean f4 [32]
00000000: ba98 943c 379c a0bd 9c1e 0bbb 913d aabd
00000010: 2fae aebd 43bc 0ebd f738 28be 00ef 04be
00000020: f977 62bd 59b9 17bd 9abd 2ebd c688 823d
00000030: 5979 ad3d a619 1abb 4cda 213c 81e2 54bd
00000040: 379d 2dbc eccd 7d3d 0862 7abd dada cebd
00000050: c42d 41bd 7341 d1bd 455e c2bd 876b e7bc
00000060: 9eb0 89bd 66a7 eabd 6ff6 f53d d261 f03b
00000070: 23d9 f5bc a49a f93c 3d0f e3bc c670 e3bd
0.018139232 -0.078422956 -0.0021227961 -0.08312524 -0.08529317 -0.03484751 -0.1642798 -0.12981796
-0.055290196 -0.037041996 -0.042661287 0.06373744 0.08470411 -0.0023513823 0.009878706 -0.051973823
-0.010596565 0.06196396 -0.061128646 -0.101003364 -0.047162786 -0.102175616 -0.09490637 -0.028249515
-0.0672314 -0.1145771 0.12009894 0.00733588 -0.030010765 0.030469246 -0.027717227 -0.11105494

res_blocks.0.bn1.running_var f4 [32]
00000000: 8e4d 7c3b 45d7 a43b 49eb b13b 3a10 933b
00000010: 1b7b a43b d8fd bf3b 7b77 973b fb1f d03b
00000020: e002 8d3b dbd4 bd3b 31be a33b ef57 a33b
00000030: 4ee9 d13b dd4a fe3b bbd7 e43b bd0e a03b
00000040: 200a b73b 9587 ae3b c092 cc3b 99c9 a23b
00000050: ae22 cb3b d4bd a83b 6c99 9e3b 72c2 8f3b
00000060: e971 9f3b 15f9 c63b 6121 a83b cbeb 9b3b
00000070: c9e0 733b c201 ab3b 2e09 c13b 2bf3 b03b
0.0038498375 0.005030545 0.0054296595 0.0044880183 0.005019558 0.005859118 0.0046223975 0.0063514686
0.0043033212 0.0057931966 0.004997038 0.0049848477 0.006405986 0.0077603892 0.006983725 0.0048845694
0.005585924 0.005326221 0.00624308 0.00496788 0.0061992025 0.0051495824 0.0048400667 0.0043871934
0.004865874 0.0060721734 0.005130932 0.0047583333 0.003721284 0.0052187154 0.005890987 0.0054000816

res_blocks.0.conv2.weight f4 [32, 32, 3, 3]
00000000: f575 ba3d a398 983b ca9d b63c e923 5e3c
00000010: c74e ba3c f1b8 01bd bc26 10bc 63e9 5cbb
00000020: a5a0 173d dca9 36bd 66f0 463d a441 2d3d
00000030: 2e66 293c 2aa1 8b3c feea fabc 76d4 88bc
00000040: d6a3 c73c 41fc 833d 4812 513c 689b f23a
00000050: 87e6 84bc 5ffc 47bd 3e78 4fbd baaf 2a3a
00000060: 3764 06bd ad35 adbc 3a6a 67bd ae81 17bc
00000070: 45bf 2c3d 27a4 393d 84bb 7f3d 3d87 12bc
00000080: bd76 e8bc 6aa2 3bbd e28a 43bd f8e2 b1bc
00000090: 28a0 64bd c95d 42bc 1ef6 a63c 70a3 6bbb
000000a0: 7453 88bc 4e37 7f3c 5d1d f8bc c56b 743a
000000b0: 5e5a d0bc 8bba b4bd ad69 b7bc b7bc 83bc
000000c0: 669a ce3c 78b3 97bd 9302 213d 7fcc c23c
000000d0: cf0b 93bc 2bf5 453d 6a36 453d 46a0 9b3b
000000e0: bc1f 723d 3a18 44bc a363 72bc aacb a63c
000000f0: ad08 46bc 6d7f 5fbd 3ecf 29bc 412c 963c
00000100: 20e5 6f3b 246b ff3c 179f 5dbc 5022 143d
00000110: d9ed 31bd 0595 0d3b 8e7c 613c 05ee b8bc
00000120: 115a ebbc 2351 e63c e424 103d 5ea8 253b
00000130: e153 813d e284 b13c 5f20 0f3d 537f 303d
00000140: 76f2 7a3b 03cc 373c 2220 c1bc 6bb3 893c
00000150: ffa6 bfbc f7ca 8f3d c24c bf3c 2682 07bd
00000160: c73c 80bb d3dc 213c 183d 823d ca8f 043d
00000170: 9861 59bc a89e 07bd 46c6 fdbb 8346 82bc
00000180: 362b 81bd 0902 bb3c 2f5b babd 5ca8 333c
00000190: 1ea2 123d 2930 07bd a683 5fbc 2965 fe3c
000001a0: 8c91 0ebd bb0b 29bc a184 cd3c e014 123d
000001b0: 224c e03c 9160 2c3c ccfb 763d f785 1fbc
000001c0: 565e 4a3c fdb6 8dbb 2b26 c1b9 08ad 063d
000001d0: 3c7e 99bd 92e6 8dbd 3939 fd3c a4df 543b
000001e0: cad5 5c3d 6df6 79bd 00d7 75bd eae3 4b3d
000001f0: 6097 433d 7436 283c 8457 dcbc 5fd2 d3bc
00000200: 10cb 823c 47cc c3bc e5d1 043d 1ccd a33d
00000210: bff2 32bd e704 c33c af2a 2abc b0e8 913d
00000220: fcaa 133d 9f2f 003d b07b 233c bb6e 363c
00000230: e0cf abbc 0a76 853c 4229 89bb 68cb cabd
00000240: 1c78 5dbd a109 81bd c03a 303d 6e21 153d
00000250: f31e 613c 04f1 733d 6e67 843c a345 553d
00000260: 1169 54bc ef40 4dbd 1c6c 313d ab78 cf3c
00000270: 9fcc 273c 8685 7e3c a05d bcbc 0a62 a03b
00000280: 51be cfbc b1dd 323c 6439 933d b1dd 993b
00000290: 7818 12bd 4510 803d d837 dd3a 1278 87bd
000002a0: 6f68 31bd 0969 1c3c 94f1 ddbb 5e5f 473d
000002b0: c82f 403d 2f72 0a3d 6a8f 0c3c e01c 513c
000002c0: 1a62 c63c 0376 19bd daf9 543c 1212 c3bc
000002d0: 8d37 95bc 93a5 58bd c9dc a5bc 2f53 69bc
000002e0: 5830 39bd 53d5 51bd 4bce 8ebb 1cf0 cebc
000002f0: 0d20 143d 8d65 3e3d c5ee 48bb ee73 f4bc
00000300: b7d4 a6bc dd73 083c eb7d a0bd 47c9 853c
00000310: df26 2f3d 6c15 49bd 16b9 3a3d 5ea1 143d
00000320: aa61 423d ef22 02bd 59c0 d8bc 7dec 8a3d
00000330: 5893 7c3d e7e9 27bd 3930 4bbd 1075 5abd
00000340: 440e 133d 86d0 50bd a760 cbbb 7537 203d
00000350: 45c3 593d 5626 2c3d 8146 8fbd 01fe 503d
00000360: 8506 a4bc 1a61 9d3c 0513 0ebd 2d5f 89bd
00000370: 3044 1e3d c992 4fbd 044c 1b3d 25e3 50bc
00000380: 873b 703c b280 afbb 224d 4a38 fe84 bc3c
00000390: b2fd 27bd 5040 883c 937f cabb ec9e 70bb
000003a0: 280d d63b 9a77 e53c f3ff f13b eb02 b9bc
000003b0: e1fc 553d ddf9 03bd aff7 29bd 9b3e cabd
000003c0: ea5a d7bc b610 61bd 0be0 053d 4939 4dbd
000003d0: 7288 ad3c 390b 453d 185f 253d dce4 8cbc
000003e0: 9050 88bc 921e f43c 0e3d 34bd e418 813d
000003f0: d499 1fbd 6e11 e3bc 3b32 273d 0cd0 bf3c
0.0910453 0.0046568676 0.022292037 0.013558366 0.022742642 -0.031670514 -0.0087982975 -0.0033708445
0.037018437 -0.044595584 0.048569106 0.042298928 0.010339303 0.017044622 -0.030629631 -0.016702872
0.024370115 0.06444598 0.012760706 0.001850945 -0.016223205 -0.048824664 -0.05065178 0.00065111706
-0.032810416 -0.021143759 -0.05649779 -0.009247227 0.042174596 0.045322563 0.06243469 -0.008943376
-0.028376931 -0.045809187 -0.04773987 -0.021714672 -0.0558168 -0.01186318 0.02038103 -0.003595557
-0.016641356 0.0155771505 -0.030287439 0.000932392 -0.025433715 -0.08824643 -0.022389257 -0.016081197
0.025220107 -0.07407278 0.039309096 0.023779152 -0.017949967 0.048329514 0.048147596 0.0047493307
0.059112296 -0.011968667 -0.014794263 0.020360786 -0.012087029 -0.054564882 -0.010364352 0.018331649
0.0036605075 0.031179018 -0.0135266995 0.036165535 -0.04343972 0.0021603715 0.013762606 -0.022574434
-0.02872947 0.02811486 0.03519143 0.0025277357 0.06314827 0.021669809 0.03494298 0.043090176
0.003829149 0.011218074 -0.023574892 0.016809186 -0.02339506 0.07021134 0.02335203 -0.033083104
-0.003913495 0.009879309 0.06359309 0.03236369 -0.013267897 -0.03311029 -0.0077445833 -0.015902763
-0.0630707 0.022828119 -0.09099423 0.010965433 0.03579914 -0.033004913 -0.013642227 0.031054096
-0.034806773 -0.010317738 0.025087656 0.03566444 0.027380053 0.01052107 0.060298726 -0.00973653
0.012351593 -0.0043247924 -0.00036840266 0.03287986 -0.074947804 -0.069287434 0.030911075 0.0032481933
0.053914823 -0.061026026 -0.060019493 0.049777903 0.047751784 0.010266889 -0.0268972 -0.025857149
0.015965968 -0.023901118 0.032426734 0.07998106 -0.043688532 0.023806049 -0.010386153 0.0712446
0.036051735 0.031295415 0.00997822 0.011134799 -0.020973146 0.016291637 -0.0041858265 -0.09902078
-0.054069623 -0.06300665 0.04302478 0.036408834 0.013740289 0.059556022 0.0161626 0.052068364
-0.012964503 -0.050110754 0.04331599 0.025326094 0.010241657 0.015534764 -0.022993863 0.0048944997
-0.025359305 0.010917113 0.07188681 0.004695617 -0.035667866 0.06253103 0.0016877605 -0.066146985
-0.043312486 0.009546527 -0.006773183 0.048674934 0.046920568 0.0338003 0.008579114 0.012763232
0.0242167 -0.03746606 0.012999022 -0.023812328 -0.018214965 -0.05289228 -0.02024688 -0.014241024
-0.04521212 -0.051228832 -0.004358088 -0.025260977 0.03616338 0.046483565 -0.0030659896 -0.029840436
-0.020365102 0.008328405 -0.07836517 0.016331328 0.04276168 -0.049092695 0.045586668 0.036286704
0.04745642 -0.031771597 -0.026458906 0.06783388 0.061663955 -0.04099455 -0.049606536 -0.053334296
0.035902277 -0.050980113 -0.00620659 0.039115388 0.05316474 0.042028747 -0.069958694 0.051023487
-0.02002264 0.01921134 -0.034686107 -0.067076065 0.038639247 -0.050677095 0.03791429 -0.012749468
0.01466263 -0.005355918 4.823239e-05 0.023012634 -0.041013427 0.01663223 -0.006179759 -0.0036715819
0.00653233 0.028011132 0.007385248 -0.0225844 0.052243117 -0.03222071 -0.041495975 -0.09875222
-0.026288468 -0.054947577 0.032684367 -0.05010346 0.021183226 0.048106406 0.04037389 -0.017198972
-0.016639978 0.029799733 -0.04400354 0.06303576 -0.03896506 -0.027718272 0.040819388 0.023414634

res_blocks.0.conv2.bias f4 [32]
00000000: cc32 91bc 322b 56bb d187 2b3d 0436 a5bc
00000010: 7703 a6bc 7297 46bd c027 2b3d fa8c 64bd
00000020: 60db 133d 481c a0bc ce62 7c3c a8b0 5cbd
00000030: 1194 a63c 91aa 2f3c 7109 713d 4931 06bd
00000040: ddd7 5dbd ca49 763a d70c b4bc ebc9 3cbc
00000050: 6193 013d 1945 9d3c ec70 4b3d 8127 07bc
00000060: a113 523d e454 debc d98e d2ba ef04 d3bc
00000070: 19f2 243d 01bf bf3c f12f 353d 0fbe 52bd
-0.017724417 -0.0032679555 0.04187757 -0.020167358 -0.020265324 -0.048484273 0.041785955 -0.05579851
0.036097884 -0.019544736 0.015404416 -0.05387941 0.020334275 0.010721819 0.058846895 -0.032761846
-0.05416094 0.00093951507 -0.021978779 -0.01152275 0.031634692 0.019197987 0.049668238 -0.008249165
0.05128825 -0.027140088 -0.00160643 -0.025759188 0.040269945 0.023406507 0.044235174 -0.051450785

res_blocks.0.bn2.weight f4 [32]
00000000: c280 7e3f e5d5 7d3f 37ff 7b3f acdc 7d3f
00000010: 14d4 763f 0e34 7b3f 4f99 7d3f 4495 7a3f
00000020: 7045 7d3f 9b18 7b3f f493 723f 05be 7e3f
00000030: eb3a 753f f3d8 783f b750 7c3f 82eb 7c3f
00000040: e8e3 7f3f a046 7d3f ee43 7f3f 42f0 7e3f
00000050: 9730 813f de45 7e3f 4784 7b3f 9d9d 7f3f
00000060: e0c2 7f3f bac9 763f a60c 7f3f 56e3 793f
00000070: 3df2 7e3f 7f72 7e3f 7c2c 7f3f 2dc7 7d3f
0.9941522 0.991545 0.984363 0.99164844 0.96417356 0.98126304 0.99062055 0.9788401
0.9893408 0.9808442 0.9475701 0.99508697 0.95793027 0.9720604 0.9856066 0.98796856
0.9995713 0.9893589 0.9971303 0.99585354 1.0092953 0.9932536 0.98248714 0.99849874
0.9990673 0.9640156 0.99628675 0.9761251 0.99588376 0.9939346 0.9967725 0.99132043

res_blocks.0.bn2.bias f4 [32]
00000000: 50e4 05bc 0f9d d8bc 88d4 a1bc c687 62bc
00000010: df2e a6bc 07a9 3dbc 9fd1 09bc ce1b 57bc
00000020: 34e5 acbb 0907 19bd e38f 44bd e46b 9fbc
00000030: adb0 05bd 51fd 19bd 46f1 d7bc 9828 c4bc
00000040: 0d46 10bd d504 8fbb dd84 90bc 842e 313a
00000050: 25ed 95bb d1e7 92bc 14f1 3cbc 9079 8fbb
00000060: 79d4 a8bb baa8 debb f54e 8dbc 3647 c5bc
00000070: 2acb 46bc 15f0 a9bc 0ba3 30bb 4013 a2bc
-0.00817211 -0.026442079 -0.019754663 -0.013826316 -0.020286022 -0.011575944 -0.008411794 -0.013129188
-0.0052763466 -0.037360225 -0.047988784 -0.019460626 -0.032639194 -0.037595097 -0.026360165 -0.023945138
-0.035223056 -0.0043645897 -0.01764148 0.00067589455 -0.004575389 -0.017932804 -0.011532087 -0.004378505
-0.005152282 -0.006795016 -0.017249564 -0.024081808 -0.012133399 -0.020744363 -0.002695265 -0.01978457

res_blocks.0.bn2.running_mean f4 [32]
00000000: a23a 55bd 6d21 b83e 0faf a73e 0b0c 963e
00000010: cf6d 9c3e 7791 75bc 04e6 fabd b1aa ce3e
00000020: d67e 63be 64a0 863e 2db3 613e 90f2 37be
00000030: 1e33 083c aa79 b53d b1a6 b13e 9194 87be
00000040: bdc1 a9bd caf8 dbbd c586 a7bd 66d7 bcbd
00000050: df6b 53be 13f1 9ebd 4d50 d13e cdd6 243e
00000060: fac7 583e 9112 8e3c 6735 23be a1a6 343e
00000070: 0396 d5be 1bc2 b6be 9946 c33b b901 093d
-0.05205787 0.35963002 0.32750747 0.29306063 0.30552527 -0.014988295 -0.12250903 0.40364602
-0.22216353 0.26294243 0.22041006 -0.17963624 0.008312969 0.08861096 0.34697488 -0.26480535
-0.08288906 -0.10740812 -0.08180002 -0.092207715 -0.20646618 -0.07760825 0.40881577 0.16097565
0.21170035 0.017342838 -0.1593834 0.17641689 -0.41716012 -0.35694966 0.0059593436 0.03344891

res_blocks.0.bn2.running_var f4 [32]
00000000: 17b8 773e 7b86 783e f11c 573e 9ea6 633e
00000010: 9667 883e 0506 303e 0e10 523e 3e6d 703e
00000020: 8c46 2e3e 9476 533e 8f37 463e 320a 613e
00000030: 9aec 523e face 433e 93c1 413e c53e 3d3e
00000040: 2d4c 2a3e c28d 723e 2887 3a3e a4ee 623e
00000050: 8897 473e bbf8 393e 3edf 523e 64e5 5a3e
00000060: 15ee 6d3e b7af 703e 04ce 753e cdde 533e
00000070: 097d 543e 9a2e 5a3e de3e 643e 9926 443e
0.24191318 0.2427005 0.21007134 0.22231528 0.2664153 0.17189796 0.20513937 0.23479173
0.17019099 0.20650703 0.19357131 0.21976545 0.20598069 0.19121924 0.18921499 0.18480976
0.16630621 0.23686889 0.1821562 0.22161347 0.19491398 0.1816129 0.20592973 0.21376568
0.23235352 0.2350453 0.2400437 0.2069046 0.20750822 0.2130684 0.22289607 0.19155349

res_blocks.1.conv1.weight f4 [32, 32, 3, 3]
00000000: c24c 18bd af80 c33a e76d 8abd af62 ae3c
00000010: b469 5ebd 278c 3f3d f686 57bd 445e e6bc
00000020: 9d37 5cbd d90e 003d 221c 173d 68be 06bd
00000030: bdb7 25bc 3402 95bb 218f b6bc aae7 903d
00000040: ebe2 9d3b de3b 5a3c 6345 c7bb 468b c03b
00000050: 1bf2 9bbc 8c5c 093d 9bc5 803d b886 183d
00000060: 3006 1b3d 2866 cabc dca0 10bd 2145 073d
00000070: b712 243d baca 053c 32f3 083c 1284 7d3d
00000080: f40f 893d 1e51 643d e2ae 003d 94ab f63c
00000090: 4f57 27bd c11e d9bc 4a51 983c ed20 183d
000000a0: 3369 b2bc 2513 8bbd 7c22 0b3d 242c 523d
000000b0: e754 fcbb ed9d eabc 7af9 dfbc 0637 9bbb
000000c0: 6ce4 003d 3935 9cbc 3dbc 803d 70cb bfbc
000000d0: e7a8 96bd 95f7 113c e8e6 bc3c b3d3 8e3c
000000e0: 98e0 033d df4c b2bb 2ac5 00bd ed03 0abc
000000f0: 6df4 4abd 44d2 81bd 909e 09bb 01e1 3d3d
00000100: 5324 553d 5869 243c f7c2 3b3d 9b98 4dbd
00000110: fd18 96bc 347e 82bd d808 20bd a722 b1bc
00000120: 3fc4 97bd df93 3e3d b3ff 263c dff0 aa36
00000130: 0805 18bc e218 0e3d aba6 413d cb43 86bc
00000140: 0197 94ba 5414 fdbc 3778 b93c 23dc 193d
00000150: aa29 953b ad7e 13bc 06ee b1bc e17a 5b3d
00000160: b012 eebc c7ba 153d 25b6 223c 0d81 20ba
00000170: dc60 7c3c a7de 803c 8e8e 09bb 3a66 4ebd
00000180: e075 29bc a745 4ebd e39c 103d 4898 0cbd
00000190: f93e 66bd 0afc 0b3d 8362 81bc 12bd 84bc
000001a0: 2b0b 303c 1589 4f3d db1f 87bc e477 6dbc
000001b0: c04b 31bd c80c 4abd 81c9 82bd d5ee a7bc
000001c0: d049 59bc fee5 423d 4c0e d1bc 7956 8dbd
000001d0: 151b df3c 0748 41bd 4879 87bc c640 d4bd
000001e0: 1831 02bb 8e54 803d 6fa8 15bd 2fda 98bb
000001f0: 4200 68bd 8a2c 9d3c 5ac8 aebb db49 98bd
00000200: 59ca ae3b 97c1 133c f03e 70bd 757e 3e3c
00000210: 5c3b e6bc e550 773d f329 35bd c752 08bd
00000220: 0d0f 253d 2916 e03c 000d 743b 707e 9bbc
00000230: 7ca6 c9bb caac 69bd 9b35 2e3d caac 1b3c
00000240: e149 3fbd 441a 463c 55ca 863d 6ef4 2cbc
00000250: 8bd4 c0bd c54c 343d 73db 66bc 7360 39bd
00000260: bc38 ffba 0e78 33bd 4aa5 1f3d e924 17bd
00000270: 5869 c43c 3a76 133d 7ef8 9e3d 9fdc 43bd
00000280: 6d7c a3bc 33b7 ce3a 27e5 293c 3be4 a93b
00000290: 897d 40bd b335 0fbd 2ebc 87bd b871 9b3d
000002a0: 8fb1 4dbc 6d71 b8bc bc69 32bd 4db9 84bc
000002b0: 164e 55bc 5453 343d 7aac a8bb 44a7 30bd
000002c0: 6a8f 553d 8eeb 5ebd 6ce0 8bbc 3e6e 60bd
000002d0: 3f2f 94bc 08af a2bc 3fc6 063d 26ed 823d
000002e0: 5e55 5dbd b82b fb3b d50d 6d3d ca21 1f3d
000002f0: 02b6 a43d e0af 92bc ab19 083d 30ba 92bc
00000300: 6cf3 d2bc a7a0 8ebd 0dd7 453d 679d 0b3d
00000310: c006 8d3d 3b63 2ebc db6a 873d 31ae 833c
00000320: 38cd 40bd 35fa afbc e192 1cbd a3a1 873d
00000330: 7548 d8bc c6bf f83c 33e3 7bbd 80c4 f9bc
00000340: bb80 3dbb 80c5 9f3c 53c8 2dbb 1e32 063d
00000350: 2f48 7cbd a047 45bd d4db 95bd 7c2e 32bd
00000360: a265 cb3c 7582 a53d 0604 d2bc cdbf f8ba
00000370: cfcd c73d e1bf 03bd dfea 813d f33d c13c
00000380: 243c febc a76f 773c 619a 353d b83c adbc
00000390: 11aa 7c39 ac3b 0c3d 57aa 9e3c c0cf 1dbd
000003a0: 5a9f a2bc d185 4cbd 11d6 33bd f51b 0abc
000003b0: ab05 0dbd 2c7e b63d 4d05 62bd 1b7b 363d
000003c0: 7d63 dfbc c991 0ebd 3426 7ebb 12e2 713b
000003d0: 6e34 d1bc ec65 6b3b b3e7 16bc 9c83 86bc
000003e0: 9329 e73c 2f15 0f3d d99e 2abd 1881 653d
000003f0: 4398 23bd 82e3 1e3d ca0c e3bc 29d7 2abc
-0.037182577 0.001491567 -0.067592435 0.02128729 -0.054300025 0.04676452 -0.052618943 -0.028121121
-0.053763974 0.03126416 0.036892064 -0.03289643 -0.010114607 -0.004547382 -0.022285046 0.070754364
0.0048183105 0.0133199375 -0.0060812696 0.0058759777 -0.019036343 0.033535525 0.0628769 0.037237853
0.037847698 -0.024706915 -0.035309657 0.03302491 0.04005691 0.00816601 0.0083587635 0.06189353
0.06692496 0.055741422 0.03141678 0.030111112 -0.04085475 -0.026503922 0.01859345 0.037140775
-0.021778679 -0.06790761 0.033968434 0.051311627 -0.007700551 -0.028639758 -0.02734064 -0.004736784
0.03146784 -0.019068347 0.062859036 -0.023412436 -0.07356434 0.008909126 0.023059323 0.01743493
0.03219661 -0.0054412927 -0.03143803 -0.008423788 -0.04954951 -0.06338933 -0.0020999052 0.04635716
0.052036595 0.0100348815 0.04584023 -0.050194364 -0.018322462 -0.063717276 -0.039070934 -0.021622969
-0.07410478 0.04652774 0.010192799 5.094436e-06 -0.009278543 0.0346917 0.047278088 -0.016389748
-0.0011336507 -0.030893482 0.02264033 0.037563454 0.004552086 -0.00900237 -0.021719944 0.053583983
-0.029061645 0.036555078 0.009931122 -0.00061227457 0.015403952 0.015731169 -0.002098951 -0.05039046
-0.010343045 -0.050359394 0.03530587 -0.034324914 -0.0562124 0.03417591 -0.015794044 -0.016203437
0.01074485 0.05066784 -0.016494682 -0.014493916 -0.04328513 -0.049328595 -0.0638609 -0.020499626
-0.013262227 0.04758262 -0.025519513 -0.06901259 0.027234593 -0.04718783 -0.016537324 -0.10363917
-0.0019865688 0.062661275 -0.036537584 -0.0046646814 -0.05664087 0.019186277 -0.0053339424 -0.07435962
0.0053341803 0.009018323 -0.058653772 0.011626829 -0.028104477 0.06037988 -0.04422946 -0.033282068
0.040297557 0.027354317 0.0037239194 -0.018981189 -0.0061538797 -0.05704955 0.04253159 0.009501645
-0.046701316 0.012091223 0.065815605 -0.010556323 -0.09415539 0.044018526 -0.014090407 -0.045257997
-0.0019471864 -0.043815665 0.03897599 -0.036900435 0.023976013 0.03600142 0.0776224 -0.047817823
-0.019956792 0.001577115 0.010369576 0.005184678 -0.04699472 -0.03496332 -0.06627689 0.075900495
-0.01255454 -0.022515023 -0.043557867 -0.01620164 -0.013019105 0.04402478 -0.005147514 -0.043128267
0.052138723 -0.05442386 -0.017074786 -0.054792635 -0.018088935 -0.019858852 0.032903906 0.06392889
-0.05403649 0.007665124 0.05787452 0.038850583 0.08042528 -0.01790613 0.033227604 -0.017911047
-0.025750838 -0.06964236 0.04830079 0.034085657 0.06886053 -0.010643776 0.06612178 0.016074272
-0.04707071 -0.021481613 -0.038226012 0.06622627 -0.026401738 0.030364882 -0.06149597 -0.030489206
-0.002891584 0.019503355 -0.0026517108 0.03276264 -0.061592277 -0.04816401 -0.073173195 -0.043501362
0.024828736 0.08081523 -0.025636684 -0.001897806 0.09756052 -0.03216541 0.06343626 0.02358911
-0.031034537 0.015102304 0.04433668 -0.021147117 0.00024095947 0.034236595 0.019368334 -0.038528204
-0.019851375 -0.049932305 -0.04390532 -0.008429517 -0.034429234 0.08910784 -0.055180836 0.044550996
-0.02726912 -0.034807 -0.0038780095 0.003690843 -0.025537696 0.0035918904 -0.009210515 -0.016420178
0.028218066 0.03493231 -0.041655395 0.056031317 -0.03994013 0.038791187 -0.02771606 -0.010427275

res_blocks.1.conv1.bias f4 [32]
00000000: 7016 fbbb 727d 1cbd 5784 283d bce3 38bd
00000010: 3dcf 48bd c010 773c 3d26 e13b 06f6 33bd
00000020: 0e00 183d f644 213d e5ef 32bd 9454 c73c
00000030: 183b 1c3d 2397 323d 10ff 0fbd 7da6 a8bc
00000040: db36 3fbd 9f50 69bd ed43 b83c d22d 6bbc
00000050: 7e00 3d3d 6b2a 07bd bea8 50bd f2c9 fabb
00000060: ca17 71bc f7ed e4bb 0b42 c1bc b618 48bd
00000070: 88ea c83b 0f1e a9bc 9d58 b63c 9c31 71b8
-0.007662587 -0.03820557 0.041141834 -0.04513906 -0.049025763 0.015079677 0.0068710134 -0.043935798
0.037109427 0.039372407 -0.043685813 0.024332322 0.038142294 0.043601166 -0.035155356 -0.0205872
-0.046683174 -0.056961652 0.022493327 -0.014354186 0.046143048 -0.032999437 -0.050942175 -0.0076534683
-0.014715144 -0.0069863754 -0.023591062 -0.04885169 0.006131474 -0.020644216 0.022259051 -5.750508e-05

res_blocks.1.bn1.weight f4 [32]
00000000: 827e 813f abdb 823f 9d88 803f dac8 7e3f
00000010: 6443 783f ee8d 7a3f 4792 7d3f 786b 7f3f
00000020: 0055 7a3f dd23 823f c132 813f 9d3c 813f
00000030: efcf 843f d428 823f 5861 803f c7b2 7e3f
00000040: e74d 813f 2fdb 803f bca6 753f 9b3f 843f
00000050: b8f9 753f 1d28 803f b6d9 7d3f 6d5d 7d3f
00000060: 98e4 823f 86bb 813f 21cd 803f 4ba2 7d3f
00000070: e90b 7d3f dbc1 7e3f e5b1 7f3f 2e99 803f
1.0116732 1.0223287 1.0041691 0.99525225 0.9697783 0.9787282 0.99051327 0.9977336
0.9778595 1.0167195 1.0093614 1.0096623 1.0375956 1.016871 1.0029707 0.9949154
1.0101899 1.006689 0.9595754 1.0331911 0.96084166 1.0012242 0.99160326 0.9897068
1.0226011 1.0135353 1.00626 0.99075764 0.988463 0.9951455 0.9988082 1.0046747

res_blocks.1.bn1.bias f4 [32]
00000000: 5bc4 2fbd d19d 9b3c 1baa e1bc 19c3 a1bc
00000010: f433 99bc 6055 0ebd 9118 04bd dda2 bfbc
00000020: 06e6 9cbc b72b c5bc 11db 80bd 225a 0f3c
00000030: 8c30 0d3c 356b f6bc c428 2fbc 5451 b7bc
00000040: 76b1 86bc bf82 19b9 7271 28ba d96a 03bd
00000050: 4def 83bd 5794 25bd a3f9 663b 28b1 cdbc
00000060: 56b3 9abb 8602 07bd d443 5ebc 61a8 903b
00000070: cac6 72bc 087a a03b d224 86bc bb43 91bc
-0.04291187 0.018996151 -0.027546933 -0.01974635 -0.018701531 -0.03474939 -0.03224999 -0.023393089
-0.019152652 -0.024068696 -0.062917836 0.008749517 0.0086175315 -0.030080417 -0.010690872 -0.022377647
-0.016442042 -0.00014639924 -0.0006425596 -0.03208432 -0.064421274 -0.04042467 0.003524401 -0.025108889
-0.0047210855 -0.03296139 -0.013565976 0.0044146036 -0.014817903 0.0048973598 -0.01637498 -0.017732492

res_blocks.1.bn1.running_mean f4 [32]
00000000: 9670 91be 7a39 44bf 9c37 123e daf4 90be
00000010: 10c6 38bd 9031 de3e fa86 86be 37c5 1b3e
00000020: 6ba9 e23c 186c 5fbc f6a2 173d fd1f b23d
00000030: da29 14be 5e70 db3b 28e3 8fbd 58f3 d8be
00000040: 6c97 6abc ca04 913d 6516 55bc b98e 86be
00000050: cd6d fcbd 4312 10be 3ad9 553e affc 583d
00000060: 3543 6ebc f517 95bd ec76 d3bd c252 a7be
00000070: d50e 2d3e b7b2 d0be c93a 443e 55f6 e93e
-0.2840621 -0.766502 0.14279026 -0.28311807 -0.045110762 0.43397188 -0.26274854 0.1521195
0.027668675 -0.013636611 0.037020646 0.086975075 -0.1446909 0.006696745 -0.070257485 -0.42373157
-0.014318328 0.070809916 -0.013005828 -0.26280764 -0.1232563 -0.14069466 0.20883647 0.052975353
-0.014542391 -0.0727996 -0.10325417 -0.32680327 0.16900189 -0.4076135 0.1916305 0.4569575

res_blocks.1.bn1.running_var f4 [32]
00000000: 62a6 4d3e 81f6 873e f505 123e c33d 1a3e
00000010: 2a62 423e 9a7b 773e ed73 593e f996 423e
00000020: ecc1 2b3e 8e73 543e 31a2 3d3e 906d 953e
00000030: 165c 443e afc0 413e 7870 343e 3e55 413e
00000040: 2cc2 633e 3278 593e 8819 963e 2a4b 3f3e
00000050: a0d9 403e 372f 733e 7103 3f3e 270f 6c3e
00000060: 7f02 5b3e eddc 533e 7910 533e 0812 593e
00000070: ae13 4e3e 5c68 423e b2f7 603e bc66 423e
0.20083001 0.26555255 0.14260085 0.15062623 0.18982759 0.24168244 0.21235628 0.19002904
0.16773194 0.20747206 0.18518902 0.29185152 0.19175753 0.18921159 0.17621028 0.18880174
0.2224204 0.21237257 0.29316354 0.18681017 0.18833017 0.2374848 0.18653657 0.23052655
0.21387671 0.20689745 0.20611753 0.21198285 0.20124695 0.18985122 0.21969488 0.18984503

res_blocks.1.conv2.weight f4 [32, 32, 3, 3]
00000000: c7b0 3ebd 80fc cc3c d0d9 4f3d a139 5abc
00000010: ed0f c13c 9353 04bd e0a4 0bbc 520c 453c
00000020: 2268 ea3c 6aa4 923d 21c9 3abd 574d 98bc
00000030: 3d44 293d 3d01 763d c3c4 fcbc 3a69 1e3d
00000040: 3005 49bc 7881 973d 7361 7c3c f82d 2ebd
00000050: 0361 d03c 4843 f53c 72f4 20bd d0dd 9c3d
00000060: 4d97 46bc a17b 203c c28e cbbc c1aa 56bd
00000070: 9b55 50bd d073 67bd 9bfb fe3c ea2d 253d
00000080: 4387 73bc 17c2 e7bc 0bf3 083d 505b 62bd
00000090: 8133 7d3c 5dd2 923c 1094 f9bc 5bb1 93bd
000000a0: d292 ac3b 8b5e 333c c14f afbc 4be3 12bb
000000b0: a9b3 83bd 3ab2 10bd 1b0a d63c cbec ab3b
000000c0: ecd2 f7bc d699 a23c 10e9 243a afdc b53a
000000d0: 2020 15bd 3d91 3d3d 3877 c13c 7aee 4cbd
000000e0: 2932 cabc eb37 9bbc b010 19b9 911e 983d
000000f0: fbae 9539 e09b 34bd ec67 553d 8b62 07bd
00000100: fc82 89bd 70c3 db3c a0f8 3c3d 7143 adbc
00000110: 8363 3f3d 335c 3abc 3d12 3fbd 30af 383d
00000120: 34e8 313d 6c4a f13b aac9 7ebd cdd3 91bd
00000130: f77d ca3c 4c4e 9fbc 436c 55bd 1cdc 473d
00000140: 1088 e03c bd99 1e3c 9da0 95bd 3030 2abd
00000150: 0c10 d0bc 2c5f 3c3c 0218 3d3c 86f1 333d
00000160: bcca 8038 3938 10bd 4db7 3ebd 3374 e5bc
00000170: b576 2ebc 25b6 f3bb 02a9 23bc 31ff 32bd
00000180: d59a 3dbd db0c 383b bfa2 52bd 4447 19bd
00000190: 4f43 603d c522 403d 6ef6 bf3b f153 2cbd
000001a0: 4a59 7dbd bf47 87bd bafa bc3c 9068 103d
000001b0: 560d 363d 277b b3bb bc80 613d 620f 57bc
000001c0: 762d 88bd 9120 5a3d 5309 00bc a8de a13b
000001d0: fde8 83bd d43c 47bc 044c 55bd 0e08 0ebd
000001e0: 9b9a 003d 8d1f 26bd 4d7a 743d e9ce 23bd
000001f0: 1b8e a9bd d952 8fbd 2459 1ebd 183b 293d
00000200: e318 703c 2a32 d8bc 7e9a c2bc b872 b1ba
00000210: 8db2 98ba 86e8 b93c 3830 023d 2b79 783d
00000220: 7097 0ebd 5fb7 21bc dbea 2dbd c9b9 84bd
00000230: d75d 893c 8fcd 98bc 2fee 8b3c 9311 c73d
00000240: 8994 7a3d 369c 183d 299e 713d 5176 7cbc
00000250: 2ce9 f43c e08d c03c 6e5c 953b 6f59 6c3b
00000260: 67e5 253d 3a28 41bd 3758 a2bd d219 4ebd
00000270: cf21 043d 4760 613d f1b1 08bd 5e97 31bd
00000280: 1953 ef3c 21db 3cbd 58a5 12bd cfed 57bd
00000290: f190 a73b 5f3b 993c 659f 85bb 408d 993c
000002a0: 5656 223d 1563 f8bc 6955 98bc 66bf 10bd
000002b0: 2687 06bd 8b88 8bbd 1e37 f73c b0b3 e8bc
000002c0: f3fd 1d3d cb0e 2abd 06ca 8b3b 60ba b1bc
000002d0: a0bd 883c a9f4 c23c 9ce6 3ebd 4ce9 ebbb
000002e0: 3c0e 463c a2ae f93b 3aaf f63c 7b03 09bd
000002f0: d90d 3b3d 329f 91bd 3898 f0bc 77ff 5d3d
00000300: 6932 a8bc 35f6 6dbc 773b 53bc e859 b93a
00000310: d234 c5bc e6db 12bd 98c3 763d 3b61 6b3c
00000320: 0cbd d93c b728 aebc a56c 773b ca47 33bd
00000330: a978 cc3c dc8e 8cbd 8570 2bbd d24f a9bc
00000340: d74b ac3c b679 85bc a714 513d 95e3 0dbd
00000350: 1fa9 a2bc ec22 e7bb a0ee b2bb d683 1d3c
00000360: 14b7 31bd aded 16bc e2ae e3bc 2957 033d
00000370: 31d9 a4bd e187 5fbb b5d4 eabc af42 17bd
00000380: 6380 41bd 74cd 39bd 9c7b 1ebc e84c 84bd
00000390: ed57 71bd a185 07bd 6a81 c73b 5669 4d3c
000003a0: 79c9 ee3a 1bff 183d f5a0 90bc 4f22 573c
000003b0: 69da 4fbd 5cf7 3a3d 42b5 7a3c 21be 3ebc
000003c0: 9454 d93c 3151 8abc 712e 543c 66d1 a6b9
000003d0: 2794 e53a 6256 84bd b89a 123d 9a94 ffbc
000003e0: 3bc6 193d ade4 62bd 4b93 493b ebe9 87ba
000003f0: 1a1c d9bc 1dd1 803b d1d7 72bd 3696 b5bd
-0.046555307 0.025022745 0.05074483 -0.013319404 0.023567164 -0.032306265 -0.008523196 0.012026863
0.028614108 0.07160266 -0.045601968 -0.018591566 0.041324843 0.060059775 -0.030855542 0.03867457
-0.012269303 0.07397741 0.015404093 -0.042524308 0.025436884 0.029939309 -0.03929562 0.07659495
-0.012121034 0.0097951 -0.024848346 -0.052408937 -0.05086289 -0.05650693 0.031125834 0.04032699
-0.014863792 -0.028290791 0.03343491 -0.055262864 0.015454174 0.017922575 -0.03046611 -0.07211562
0.005266526 0.010947834 -0.021400334 -0.002241331 -0.06430752 -0.03532622 0.026127866 0.005246734
-0.030251943 0.019848745 0.00062908325 0.0013874973 -0.03640759 0.04628109 0.023616418 -0.050032116
-0.024682121 -0.018947562 -0.00014597434 0.07427705 0.00028549865 -0.044093966 0.05210106 -0.033052962
-0.067144364 0.02682659 0.046135545 -0.021150323 0.04672576 -0.011374521 -0.046648253 0.045088947
0.043434337 0.007363608 -0.06220404 -0.07120476 0.024718268 -0.019446515 -0.0521052 0.048793897
0.02740863 0.009680209 -0.07306025 -0.04154986 -0.025398277 0.0114973 0.011541368 0.043931507
6.141278e-05 -0.035209868 -0.046561528 -0.02800951 -0.010648419 -0.007437485 -0.009989025 -0.0437004
-0.046290237 0.0028083834 -0.051424738 -0.03742148 0.05475169 0.04690816 0.005858234 -0.04207224
-0.06185273 -0.06605481 0.023068774 0.03525597 0.044446312 -0.0054773274 0.05505441 -0.013126226
-0.06649296 0.053253714 -0.007814723 0.004939873 -0.06440923 -0.012160499 -0.052074447 -0.03467565
0.031397443 -0.040557433 0.059686948 -0.039992247 -0.082790576 -0.06998224 -0.03865923 0.04131612
0.014654371 -0.026391108 -0.023755308 -0.0013538217 -0.0011649892 0.022693884 0.031784266 0.06066243
-0.03481239 -0.009870379 -0.042460304 -0.06480748 0.01676838 -0.018652705 0.017081348 0.09720149
0.06117681 0.03725835 0.058988724 -0.015409068 0.029896341 0.023505151 0.0045581376 0.0036064049
0.04050198 -0.047157504 -0.07926982 -0.050317593 0.032258805 0.055023458 -0.033372823 -0.043357246
0.029214429 -0.046107415 -0.035802215 -0.052717026 0.005113714 0.018705068 -0.004077839 0.018744111
0.039633118 -0.030320683 -0.018595414 -0.03533878 -0.03284373 -0.06813153 0.03017765 -0.028405994
0.038572263 -0.041518014 0.0042660264 -0.021695316 0.016691983 0.023798304 -0.046606645 -0.007199442
0.012088355 0.007619695 0.030112851 -0.033450585 0.045667503 -0.07110442 -0.029369459 0.05419871
-0.02053185 -0.014524032 -0.0128925955 0.0014141174 -0.024073038 -0.035854243 0.060245126 0.014366443
0.026579402 -0.021259649 0.0037753966 -0.043769635 0.024959879 -0.06863186 -0.041855354 -0.020667944
0.021032257 -0.016293388 0.051045086 -0.034640867 -0.019856034 -0.0070537236 -0.005460575 0.009613952
-0.043387488 -0.00921194 -0.027793352 0.032065544 -0.080492385 -0.003410809 -0.02866588 -0.03692883
-0.04724158 -0.04536195 -0.009673025 -0.06459981 -0.058921743 -0.033086423 0.0060884254 0.012537321
0.0018218003 0.037352663 -0.017654875 0.013130738 -0.0507454 0.045646057 0.015302004 -0.01164201
0.026529588 -0.016884418 0.012950526 -0.00031818 0.0017515466 -0.06461789 0.035792083 -0.031198788
0.037542563 -0.055393863 0.003075796 -0.0010369396 -0.026502658 0.0039311782 -0.05928785 -0.08866541

res_blocks.1.conv2.bias f4 [32]
00000000: 6d9b 2bbc bb33 443d 86cc 65bd e120 573d
00000010: e47f 28bd 0313 4b3d 6d00 203d e522 2cbd
00000020: 68e1 323d 28be 3e3d 44cf 823c b760 f93b
00000030: e63e 49bd bb75 613c 2e15 4cbc a497 b43c
00000040: 0aa4 36bd 9050 31bd b6a2 f33c 940d 02bd
00000050: a785 1b3d e1e4 04bd 858b 503d f635 75bc
00000060: 2558 d13b 286b b43a 7e7f bebc fece 02bd
00000070: 5d5a 47bd eaa4 183d 7c86 cabc ec41 273c
-0.010474068 0.047900897 -0.056103252 0.05252159 -0.04113759 0.049578678 0.039062906 -0.042025466
0.043671995 0.046568066 0.015967973 0.0076104063 -0.04913225 0.013760979 -0.0124562215 0.022044964
-0.044590034 -0.04328972 0.029740673 -0.03175123 0.037969258 -0.03244484 0.050914306 -0.014966479
0.0063886815 0.0013764845 -0.023254152 -0.031935684 -0.04867016 0.03726665 -0.02472233 0.010208588

res_blocks.1.bn2.weight f4 [32]
00000000: 0f41 783f c060 773f 13a3 783f 97e3 7c3f
00000010: b1c5 783f 19f2 7f3f 23d2 7d3f c05d 7b3f
00000020: 64b5 7a3f 84ef 793f 0c20 763f 8127 803f
00000030: 4499 813f f65a 793f 05e9 7b3f f043 813f
00000040: 10b0 783f cf56 7c3f 450e 7c3f b59c 793f
00000050: a6b5 783f 0aa6 7b3f 53c6 7d3f ed89 7d3f
00000060: 3ebf 7a3f 546d 753f 637e 7b3f e1c0 783f
00000070: 0a84 7a3f fe9a 7f3f 0d52 7f3f 2122 7f3f
0.9697427 0.96632004 0.9712383 0.98784775 0.97176653 0.99978787 0.9914877 0.98189926
0.9793303 0.97631097 0.9614265 1.0012056 1.0124898 0.9740442 0.98402435 1.0098858
0.9714365 0.9856996 0.98459274 0.9750474 0.97152174 0.9830023 0.99130744 0.99038583
0.9794806 0.95869946 0.98239726 0.9716931 0.97857726 0.99845874 0.99734575 0.9966145

res_blocks.1.bn2.bias f4 [32]
00000000: 5ace 63bc 534a ebbc 4479 9dbc bddd 3ebc
00000010: 55ca 07bd 26bb 4cbc 162e 513a ea6a e0bb
00000020: c5c4 3ebc cbfd b5bc f738 f0bc ae0d 88bc
00000030: 1630 d6bc d59c ddbc 58fc 74bc 0c9f 4fbb
00000040: f385 2ebd 9dfc fb3b d002 01bc 6fc0 eebb
00000050: a2a7 11bc 26c6 8ebc 277f 1ebc ff8d 1cbc
00000060: d4b1 0ebc 92b3 a7bc d1c9 82bc 946d afbc
00000070: 2289 9abc 5a1a 52bc ae0d cdb8 be8f 0dbc
-0.0139041785 -0.028721964 -0.019222863 -0.011649546 -0.033151943 -0.012495792 0.00079795846 -0.0068486826
-0.011643593 -0.022215744 -0.029324038 -0.016608085 -0.026145976 -0.027052322 -0.014952742 -0.0031680493
-0.042608213 0.007690026 -0.007874206 -0.0072861235 -0.008890064 -0.017428469 -0.00967387 -0.009555339
-0.00870939 -0.020471368 -0.015965374 -0.021414556 -0.018864218 -0.0128236655 -9.77771e-05 -0.008640228

res_blocks.1.bn2.running_mean f4 [32]
00000000: 10d8 34bf 84ad 06bf d304 94be 655d 5e3e
00000010: 7b6d 2c3e 6a9b 03be be42 d6be df34 60be
00000020: b422 243c e2c2 28be d95f 7ebe ed8f 14be
00000030: 927d d8be ad93 703d 78aa dcbe a9ab 39be
00000040: 5f2b 49be 50bc 92bc c4b9 2d3e df79 35be
00000050: 476a cbbc cfb9 7c3e d0d7 863e 16d6 28bf
00000060: 6e22 a1be 726e d03d e974 e2be 4a88 28bf
00000070: dc6b c5bc 3268 01be 2216 88be ee4b 8abe
-0.70642185 -0.52608514 -0.2890993 0.21715315 0.16838638 -0.12852255 -0.41847795 -0.21895169
0.0100180395 -0.16480592 -0.2484125 -0.14508028 -0.42283303 0.058734585 -0.43098807 -0.1813189
-0.19645451 -0.01791206 0.16965395 -0.17722271 -0.02483095 0.24680255 0.26336527 -0.6595167
-0.3147158 0.10177316 -0.4422982 -0.6583296 -0.024099283 -0.12637404 -0.26579386 -0.27011055

res_blocks.1.bn2.running_var f4 [32]
00000000: 4eea 933e 2ae8 603e e8cc 903e dd6e 1e3e
00000010: 73f5 c63e d36f 823e f67a 3e3e 06f6 503e
00000020: a84f 7e3e 8b3c 493e 3bb6 3b3e 5ad8 4f3e
00000030: 2818 283e 41eb 363e 44da 5c3e 44f1 163e
00000040: 9476 633e 9a0d 363e 205e 5f3e 45aa 863e
00000050: 6772 353e 0580 913e 3bd4 373e 672b 803e
00000060: 9c6b 453e f929 953e 859c 3c3e 2830 413e
00000070: 1f00 4e3e e1ad 7a3e 54ee 5a3e 9de2 643e
0.28889698 0.21963564 0.2828133 0.15471978 0.38859138 0.2547594 0.18601593 0.2040635
0.24835074 0.19652002 0.18331234 0.20297375 0.16415465 0.1786318 0.21567637 0.14740473
0.22213203 0.17778626 0.2181325 0.2630178 0.17719422 0.28417984 0.17952053 0.25033113
0.19279331 0.29133585 0.18419082 0.18866026 0.20117234 0.24480392 0.21379977 0.22352071
